pythonProject/LAP5/mnist_digit_recognition_model.npz (npz, 815126 bytes, 4 tensors)

W1 f8 [784, 128]
0.004967141530112327 -0.0013826430117118466 0.006476885381006925 0.015230298564080254 -0.0023415337472333596 -0.0023413695694918055 0.015792128155073915 0.007674347291529088
-0.004694743859349522 0.005425600435859647 -0.0046341769281246226 -0.004657297535702569 0.002419622715660341 -0.01913280244657798 -0.01724917832513033 -0.005622875292409727
-0.010128311203344238 0.003142473325952739 -0.00908024075521211 -0.014123037013352916 0.014656487689215542 -0.0022577630048653567 0.0006752820468792384 -0.014247481862134568
-0.005443827245251827 0.001109225897098661 -0.011509935774223028 0.0037569801834567195 -0.00600638689918805 -0.002916937497932768 -0.006017066122293969 0.01852278184508938
-0.0001349722473793392 -0.010577109289559003 0.00822544912103189 -0.012208436499710222 0.0020886359500475542 -0.019596701238797757 -0.013281860488984306 0.0019686123586912354
0.007384665799954104 0.001713682811899705 -0.0011564828238824054 -0.0030110369558928878 -0.014785219903674275 -0.0071984420839470865 -0.004606387709597875 0.010571222262189157
0.003436182895684614 -0.01763040155362734 0.00324083969394795 -0.0038508228041631656 -0.006769220003059588 0.006116762888408679 0.01030999522495951 0.009312801191161986
-0.008392175232226386 -0.003092123758512146 0.0033126343140356396 0.009755451271223592 -0.0047917423784529 -0.0018565897666381712 -0.011063349740060282 -0.011962066240806708
0.008125258223941981 0.01356240028570823 -0.0007201012158033385 0.010035328978920241 0.0036163602504763414 -0.006451197546051243 0.0036139560550841393 0.015380365664659692
-0.0003582603910995154 0.01564643655814006 -0.026197451040897445 0.00821902504375224 0.0008704706823817123 -0.002990073504658675 0.000917607765355023 -0.01987568914600893
-0.0021967188783751194 0.003571125715117464 0.014778940447415161 -0.005182702182736474 -0.008084936028931877 -0.005017570435845366 0.009154021177020742 0.0032875110965968446
-0.005297602037670388 0.005132674331133561 0.0009707754934804039 0.009686449905328893 -0.007020530938773524 -0.003276621465977682 -0.003921081531321576 -0.014635149481321186
0.0029612027706457608 0.002610552721798893 5.11345664246089e-05 -0.0023458713337514694 -0.014153707420504143 -0.00420645322765359 -0.003427145165267695 -0.00802277269221619
-0.0016128571166600914 0.004040508568145384 0.0188618590121053 0.0017457781283183897 0.0025755039072276435 -0.0007444591576616722 -0.019187712152990415 -0.00026513875449216877
0.0006023020994102644 0.024632421124852862 -0.0019236096478112252 0.0030154734233361247 -0.0003471176970524331 -0.01168678037619532 0.011428228145150206 0.0075193303268677415
0.00791031947043047 -0.009093874547947389 0.014027943109360992 -0.014018510627922809 0.005868570938002703 0.021904556258099787 -0.009905363251306884 -0.005662977296027719
0.0009965136508764123 -0.005034756541161992 -0.015506634310661327 0.0006856297480602733 -0.01062303713726105 0.004735924306351816 -0.009194242342338031 0.015499344050175395
-0.00783253292336237 -0.003220615162056756 0.008135172173696697 -0.012308643164339552 0.002274599346041294 0.013071427542824282 -0.016074832345612276 0.001846338585323042
0.0025988279424842354 0.007818228717773103 -0.01236950710878082 -0.013204566130842763 0.005219415656168977 0.0029698467323318605 0.0025049285034587656 0.003464482094969757
-0.006800247215784908 0.0023225369716100355 0.0029307247329868127 -0.007143514180263678 0.018657745111447566 0.004738329209117875 -0.011913034972026487 0.006565536086338297
-0.009746816702273215 0.00787084603742452 0.011585955790074041 -0.008206823183517105 0.009633761292443218 0.004127809269364983 0.0082206015999449 0.018967929826539474
-0.002453881160028705 -0.007537361643574896 -0.008895144296255233 -0.008158102849654384 -0.000771017094141042 0.003411519748166439 0.0027669079933001907 0.008271832490360238
0.0001300189187790702 0.014535340771573169 -0.0026465683323795607 0.02720169166589619 0.006256673477650063 -0.008571575564162826 -0.010708924980611123 0.0048247241524318535
-0.002234627853258509 0.00714000494092092 0.004732376245735448 -0.0007282891265687277 -0.00846793718068405 -0.015148472246858646 -0.004465149520670211 0.008563987943234723
0.0021409374413020395 -0.01245738778711988 0.00173180925851182 0.003853173797288368 -0.00883857436201133 0.0015372510594552791 0.0005820871844599989 -0.011429702978306231
0.003577873603482833 0.005607845263682344 0.010830512431752771 0.01053802052034903 -0.013776693679570911 -0.009378250399151229 0.005150352672086598 0.005137859509122088
0.005150476863060479 0.03852731490654721 0.00570890510693167 0.01135565640180599 0.009540017634932023 0.00651391251305798 -0.003152692446403456 0.0075896922049326744
-0.007728252145375718 -0.002368186067400089 -0.004853635478291035 0.0008187413938632256 0.023146585666735088 -0.01867265192591748 0.006862601903745135 -0.016127158711896517
-0.004719318657894335 0.010889505969673662 0.0006428001909546277 -0.010777447779293061 -0.007153037092599682 0.006795977489346758 -0.007303666317171367 0.002164585895819749
0.00045571839903813785 -0.006516003476058171 0.021439440893253257 0.006339190223180112 -0.02025142586657607 0.0018645431476942765 -0.00661786464768388 0.00852433334796224
-0.007925207384327006 -0.0011473644146689902 0.005049872789804572 0.008657551941701215 -0.012002964070557762 -0.003345012358409484 -0.004749453111609562 -0.006533292325737119
0.01765454240281097 0.004049817109609556 -0.012608839543350452 0.009178619470547761 0.021221561970126333 0.01032465260551147 -0.015193699659540134 -0.004842340728662514
00000000: 64ae d2e6 6c58 743f 922f 1ca1 39a7 56bf
00000010: 3308 43ae 8187 7a3f 9ea6 ed11 1031 8f3f
00000020: 3337 bd5b 8d2e 63bf d477 5237 352e 63bf
00000030: 8054 d7c7 cf2b 903f 2d0a 2aea 226f 7f3f
00000040: 6e8e 6cb5 cb3a 73bf b54e ee86 2739 763f
00000050: 004f 9a65 49fb 72bf 9e47 a8c9 8713 73bf
00000060: 3362 d60d 51d2 633f 7ad0 27a3 8c97 93bf
00000070: 0c40 28c3 c4a9 91bf 379f d817 0308 77bf
00000080: c47c 0eeb 26be 84bf f58c 3b85 3ebe 693f
00000090: d3e3 aa48 a998 82bf f589 bdf0 89ec 8cbf
000000a0: b02f 657a 3804 8e3f 0695 9348 df7e 62bf
000000b0: 973a 4927 ad20 463f 928e 2fa5 c82d 8dbf
000000c0: 7b21 bc3f 444c 76bf ef2c ec3c 6e2c 523f
000000d0: 96b4 d56d 8592 87bf 0a1c a160 f5c6 6e3f
000000e0: 5542 c934 279a 78bf 1522 0fe5 42e5 67bf
000000f0: c1f2 68e3 59a5 78bf 61bc 05d9 a2f7 923f
00000100: 6a5e d7c6 eab0 21bf 7805 e193 73a9 85bf
00000110: 1909 c217 81d8 803f a92b 039c bc00 89bf
00000120: 9395 28e3 2f1c 613f 2171 b85b 2811 94bf
00000130: 5118 7123 8533 8bbf 9add 5eb6 7a20 603f
00000140: f3a0 a421 623f 7e3f f13a 80e8 b413 5c3f
00000150: b8a4 0bfa a3f2 52bf 015c 1528 9aaa 68bf
00000160: 2785 9a9f b647 8ebf 32c0 5215 1d7c 7dbf
00000170: 06f5 0bc9 25de 72bf e4a6 286f 5da6 853f
00000180: 330c 1fa5 3226 6c3f 134b 5a38 b40d 92bf
00000190: 001f e88f 888c 6a3f 15d6 35c0 c28b 6fbf
000001a0: 1168 85a8 0aba 7bbf 0177 0209 e40d 793f
000001b0: 9f43 8122 681d 853f 51ca 6604 9712 833f
000001c0: 5455 51b1 ea2f 81bf 8435 604d a754 69bf
000001d0: 4043 5b01 1923 6b3f cd4c 5781 aafa 833f
000001e0: e5a7 e68c 81a0 73bf 2d6e 1b15 1a6b 5ebf
000001f0: 7bca 8aaa 61a8 86bf 24f3 5f5a 917f 88bf
00000200: 1541 bfb2 f9a3 803f 8c82 758d 9ac6 8b3f
00000210: a7c7 f995 a598 47bf c50a 270e 678d 843f
00000220: 7305 34a0 0ea0 6d3f d669 af27 926c 7abf
00000230: 8ec4 1ae2 039b 6d3f aeeb 3dbc bd7f 8f3f
00000240: 2c16 c9a9 9c7a 37bf ecbc 4395 9e05 903f
00000250: a33c d62d 81d3 9abf aeb3 24de 22d5 803f
00000260: c459 758e 0986 4c3f 67de 487d a37e 68bf
00000270: 3e69 dfab 7311 4e3f 6864 78eb 4a5a 94bf
00000280: d84f b777 dafe 61bf 6ab0 0085 3141 6d3f
00000290: d622 21cf 6b44 8e3f 3e80 1306 753a 75bf
000002a0: f315 adbe d58e 80bf 685a d6ce 4d8d 74bf
000002b0: 1f56 a8ec 57bf 823f d7d3 a414 69ee 6a3f
000002c0: 8af9 fb37 f0b2 75bf 37b3 4ac6 ff05 753f
000002d0: 0d56 857f 74cf 4f3f 173b 764c 7dd6 833f
000002e0: 7b7b 856c 8fc1 7cbf 8436 35c1 92d7 6abf
000002f0: 2f55 124f 8d0f 70bf cd9e 2783 08f9 8dbf
00000300: 75e1 d0a1 1742 683f 0f49 11d2 b962 653f
00000310: 6dcf eb52 2acf 0a3f 7e3c 1715 a637 63bf
00000320: bede e773 9efc 8cbf 2104 b830 c93a 71bf
00000330: 6038 e98c 3e13 6cbf 83c3 b052 3e6e 80bf
00000340: f660 6d24 d06c 5abf d9de 8cc2 c78c 703f
00000350: 1120 65ee 8550 933f 0c99 e6fd 529a 5c3f
00000360: 5823 ac21 3919 653f 486d 20de f964 48bf
00000370: fe86 ba90 f1a5 93bf 8ac6 8947 4a60 31bf
00000380: 4624 dee8 79bc 433f 1f34 9ccc 3d39 993f
00000390: b383 c421 3484 5fbf 69a4 86f7 e7b3 683f
000003a0: aeb0 1d28 abbf 36bf 0921 171c 3def 87bf
000003b0: bec1 13d1 ae67 873f 3bad 77dd 96cc 7e3f
000003c0: 1f4a 691b 4933 803f f308 382e cf9f 82bf
000003d0: 572e 14a7 aeba 8c3f 4005 7ca5 bcb5 8cbf
000003e0: 4c32 0c84 a409 783f 9137 0ce3 256e 963f
000003f0: 8b41 c159 4349 84bf 0406 8de4 0f32 77bf
00000400: 7e12 9862 ae53 503f 5176 002b 539f 74bf
00000410: 73f0 e139 f1c1 8fbf feb2 2bac 7a77 463f
00000420: e7b7 b5e8 87c1 85bf ea9c 3100 fa65 733f
00000430: cced 5f51 6ed4 82bf 838c 70be 1ebe 8f3f
00000440: f566 01c6 800a 80bf 27bd 6899 1e62 6abf
00000450: a383 7753 2ca9 803f 01b2 ca1e 4635 89bf
00000460: 7e21 b039 2ea2 623f f0bb 774e 31c5 8a3f
00000470: a933 dabc eb75 90bf 7cf2 d7f5 1a40 5e3f
00000480: 1238 ab20 234a 653f 216e 3ee5 0003 803f
00000490: 00b3 ff23 2f55 89bf 45ca 84dd fe0a 8bbf
000004a0: 5676 c238 f460 753f 812a dd52 3854 683f
000004b0: 439d 0940 3785 643f 1b83 74a9 8b61 6c3f
000004c0: 2a1c 5876 93da 7bbf 5032 c78a b606 633f
000004d0: d059 37dc 2c02 683f 5b1f 867c 8442 7dbf
000004e0: 3d78 4814 041b 933f 007e da8f 7f68 733f
000004f0: 16c3 ce7c dc65 88bf b330 58ac 76e4 7a3f
00000500: 179b cf97 23f6 83bf cfa9 9412 971e 803f
00000510: 3fae b0a9 60ba 873f 9707 6b29 bdce 80bf
00000520: cb13 828d ddba 833f 9e88 0e5d 52e8 703f
00000530: 94a0 3378 f6d5 803f 397a 1c39 546c 933f
00000540: 8339 946a 291a 64bf 92d0 1d1c 7fdf 7ebf
00000550: eed2 c30e 9e37 82bf d54c 7e07 32b5 80bf
00000560: 096f 1c9a c243 49bf ede2 efb7 79f2 6b3f
00000570: 5fd6 f36a a0aa 663f c454 3190 d2f0 803f
00000580: 2191 0e02 b60a 213f 0d40 006a b4c4 8d3f
00000590: 4af6 e48d 41ae 65bf 4d52 67a0 c2da 9b3f
000005a0: b0fb 7dff 98a0 793f e042 c965 f98d 81bf
000005b0: 6d4d 8994 8fee 85bf 8791 2607 17c3 733f
000005c0: 811d 8db1 5a4e 62bf f5ba 6e7b d63e 7d3f
000005d0: 2727 5393 4162 733f 40c7 85fd 54dd 47bf
000005e0: ba82 0b4a a357 81bf 73b4 1387 2906 8fbf
000005f0: e9c3 9b72 0c4a 72bf a9c2 1d01 ff89 813f
00000600: d1ae 6109 df89 613f 6e39 1d49 4283 89bf
00000610: 6eba 3408 bc5f 5c3f 4ebb 3eee b090 6f3f
00000620: 53f4 9f5e f519 82bf c8a6 abc1 b22f 593f
00000630: 8ab9 d8b5 e612 433f b263 f5c3 7468 87bf
00000640: 0ac0 b743 584f 6d3f 35ff 2280 40f8 763f
00000650: a7e0 8bc5 4e2e 863f 44ed fe2b f594 853f
00000660: 83f8 6786 f436 8cbf 577e 1076 e734 83bf
00000670: d7b3 a144 8918 753f 328c 02a9 6f0b 753f
00000680: 896b f89a aa18 753f f978 0d2b dab9 a33f
00000690: fe0e af8b 3862 773f 6c84 f666 a241 873f
000006a0: e95d f67d b789 833f eec3 6613 55ae 7a3f
000006b0: c4e8 73de acd3 69bf 8d07 e97c 5e16 7f3f
000006c0: 529b 83e3 a8a7 7fbf 15fe ba36 7266 63bf
000006d0: b9df 55da 67e1 73bf c9d9 58c1 19d4 4a3f
000006e0: da8d cf11 bdb3 973f 3cd7 6775 ec1e 93bf
000006f0: a572 dfab f51b 7c3f 80e0 fa4c a383 90bf
00000700: 8e8f b874 9054 73bf 8c23 13c0 3c4d 863f
00000710: 8f47 25e6 3210 453f 9ba6 f88d 7c12 86bf
00000720: 449f 13c6 804c 7dbf 5740 fa50 19d6 7b3f
00000730: 6903 92ff 72ea 7dbf 81c2 3834 77bb 613f
00000740: 96e0 bb9e afdd 3d3f 70e0 485d 86b0 7abf
00000750: c997 ec85 38f4 953f a520 116b 1ff7 793f
00000760: 4e60 2d2f cabc 94bf 9f50 d8f5 758c 5e3f
00000770: 80d1 b283 551b 7bbf 51fc 98a7 3475 813f
00000780: 81d4 3c54 173b 80bf ba65 ce28 65cc 52bf
00000790: 47e0 b2e7 2caf 743f 27cd 9ff3 0cbb 813f
000007a0: b2d8 1a91 0295 88bf 5005 e4d5 ff66 6bbf
000007b0: 77aa 9c9c 2974 73bf 36ec fc4d a7c2 7abf
000007c0: 07d2 fb48 0814 923f 411c a680 8a96 703f
000007d0: bc67 d5cb a9d2 89bf 3d63 9673 3dcc 823f
000007e0: 36e4 86ea 1abb 953f a30f 446a 1725 853f
000007f0: 17ce 24d9 df1d 8fbf 7915 0df1 8fd5 73bf

b1 f8 [1, 128]
0.030403509585538897 0.0014369348076118105 0.013184295667358696 0.000944017090032631 0.019510166001780203 0.024292729128709726 0.01610087935778581 0.010887634764901013
0.008125559987136044 0.0035009268460154683 0.012066605271945996 0.03907073476977658 0.0007535496961879175 0.03994140546783192 0.017801118175619374 0.017775334551570002
0.012497711231716715 0.014310194798905692 0.017934453967711646 0.010671431993483292 0.003632783655317765 0.0002707626771978732 0.02948231115400296 0.00019022313978619054
0.017571587679671135 0.021910987762262735 0.04810601198148897 0.020232116805287144 -0.007982651280394111 0.0026619411841476387 0.004092139447286834 0.025769985660474035
0.010941607269500189 0.005306165705766691 0.027789997714621758 0.011681860997452439 0.01549135304532708 0.010024033505644367 0.018642351603376257 0.022875266757926237
0.025839857189007755 0.014788882447045106 0.02578899553089361 0.02791343929560643 0.0031819433709148305 0.028894995371943993 0.030130989656342474 0.01256872059783206
0.023502859363392997 0.026249915982254676 0.033387439632515184 0.015357332076588204 0.03301129118767585 0.00033235359929553694 0.010710640263745104 0.021502709636128402
0.02562632834568194 0.025638547072470944 0.0007433678999952907 0.016701509536037433 0.0025802933004392217 -0.00037081371487268796 -0.00011298939545643873 -0.008177563151721965
0.00036635832424637 0.03162728575884923 0.018105801893924713 0.01023376274177855 -0.003128625161743181 0.004423351959635123 0.018574301043799656 0.0425516164193539
0.016875012984897953 0.05056200094685969 0.006375798958521276 0.02306162205454755 0.00016302078212903016 0.022501726238890834 0.016478252286118024 0.03913421924702588
0.020958064786706993 0.004037244696518886 0.004041102841343346 0.006522851532154815 -0.0010786035670243502 0.02602688202162263 0.009612681728680572 0.049646623960449526
-0.0071579431254275225 0.03345910193601583 0.03406856341486545 0.03425408855836051 0.015580128194659678 0.0037720811077344564 0.03126381813849386 0.0011042484252870904
0.008200574569988918 0.03736188015402364 0.01327318030468557 0.002501009666428333 0.02487922704129419 0.012650970956224982 0.033030764218855896 0.015614453903307892
0.006984619291328511 0.06807440863398183 0.005201667279604181 0.009247856818866139 0.020876488597171946 -0.0008740410272867338 0.002665995765672127 0.008483160745365844
0.017018467169740495 0.029211372215914667 -0.0006678462560404882 0.03444306354144693 0.02388636853104892 0.030174444777719973 0.029031784173275784 0.00040461317441483344
-0.007989435986619308 0.018335940737044337 0.035089190443435024 0.00577472278693221 0.01462363463554437 0.017648575527925647 0.03874291986666212 -0.0008743765927811141
00000000: 12ff 69fd 1822 9f3f fbd0 5400 f18a 573f
00000010: 8961 b235 5e00 8b3f b2b2 a743 fdee 4e3f
00000020: 7630 ab13 79fa 933f 61b7 8d74 31e0 983f
00000030: 5f37 1db9 bf7c 903f 21e5 f799 414c 863f
00000040: 4061 4033 22a4 803f 42fd e5c9 f9ad 6c3f
00000050: 6d4d 2258 60b6 883f 293e 2250 1401 a43f
00000060: 7268 88a6 3bb1 483f b731 7b2c 3373 a43f
00000070: 6508 96d1 743a 923f 243d 4c82 b233 923f
00000080: bbdf 1e68 6698 893f 7117 49d5 a94e 8d3f
00000090: df3f 0dd5 685d 923f 79d8 4e5b e7da 853f
000000a0: 6eed c6df 7fc2 6d3f e062 f2d7 a4be 313f
000000b0: 3025 de68 9c30 9e3f ac4a 2254 d4ee 283f
000000c0: bb22 b149 49fe 913f 7da9 727f d56f 963f
000000d0: 4b28 67e8 59a1 a83f e2bd 0760 bab7 943f
000000e0: c431 7a51 3559 80bf f7a2 8dca 7ece 653f
000000f0: 185d 8c51 ebc2 703f 793f 8576 7263 9a3f
00000100: aefd 1aab 8d68 863f f958 c602 ebbb 753f
00000110: 5f61 5c2d fb74 9c3f 5e18 86d7 a8ec 873f
00000120: eb8f 9a35 eeb9 8f3f ab60 a500 7b87 843f
00000130: c500 d409 fb16 933f 5345 732a 9d6c 973f
00000140: 8a8a 3d76 c375 9a3f 34b5 a233 a249 8e3f
00000150: f685 9b31 6e68 9a3f 85f4 9233 5795 9c3f
00000160: 1adc e7d6 0411 6a3f cbf1 8f50 a696 9d3f
00000170: 0f30 ae7c a8da 9e3f 2cac 5c1f a1bd 893f
00000180: 7823 5031 2211 983f 3f87 aa0a 42e1 9a3f
00000190: 4a3d a392 2818 a13f cd9b 2e38 aa73 8f3f
000001a0: 7d7f 1920 dbe6 a03f f969 f5d6 f7c7 353f
000001b0: f14e 37cd 75ef 853f f674 a66a ce04 963f
000001c0: cb21 a5c8 c93d 9a3f 44db c5c4 fd40 9a3f
000001d0: d64f e168 d25b 483f be23 0155 331a 913f
000001e0: 55f9 dc6a 4423 653f 1cc8 3dc7 384d 38bf
000001f0: d89b 7a08 979e 1dbf df86 61f2 65bf 80bf
00000200: 8000 7105 7902 383f b3b2 fd9b 7331 a03f
00000210: d750 02cc 538a 923f f9e3 5362 70f5 843f
00000220: 1841 09d8 33a1 69bf 4bd5 1580 381e 723f
00000230: e3e0 1d3e 2405 933f d07c d351 53c9 a53f
00000240: ad10 8ff3 ae47 913f ff62 f938 43e3 a93f
00000250: 9d19 3480 821d 7a3f e466 1142 779d 973f
00000260: 4e3e 0adb 115e 253f 6bc5 3249 b10a 973f
00000270: 8a0d a8ca acdf 903f a114 a47f 6609 a43f
00000280: 15ab 62eb 0776 953f f7fd ff9e 5b89 703f
00000290: bf87 b148 678d 703f 7ec5 1da0 b4b7 7a3f
000002a0: 680d edc2 fdab 51bf e21c 667c caa6 9a3f
000002b0: 805a 364d d0af 833f 74ac 8844 486b a93f
000002c0: 98de 15ba a551 7dbf 0b2f 2329 8d21 a13f
000002d0: 8589 604b 6f71 a13f 8c92 397c c089 a13f
000002e0: f126 8268 79e8 8f3f 5fc8 db9f a0e6 6e3f
000002f0: 7de5 e7a8 cf01 a03f 979d e3b7 8d17 523f
00000300: 072d b17c 76cb 803f 40d8 c1aa 1821 a33f
00000310: ab8d 941a f82e 8b3f 4c61 2d57 ff7c 643f
00000320: 9fed f7a9 f079 993f e634 2894 c0e8 893f
00000330: 44eb 2988 68e9 a03f 9b79 e086 78fa 8f3f
00000340: dc77 e676 e79b 7c3f b709 c70e 536d b13f
00000350: b1f2 9bed 574e 753f 9fce c254 8af0 823f
00000360: ffe4 1e6f a560 953f 7bd8 53d0 fca3 4cbf
00000370: 9fa8 fe93 ffd6 653f d194 be8f 9e5f 813f
00000380: 1437 b0ff 496d 913f 8ac3 5a01 96e9 9d3f
00000390: caa5 0aea 4ce2 45bf d718 f86e 85a2 a13f
000003a0: 91ec a40e ab75 983f d226 fbb5 0ce6 9e3f
000003b0: 5f66 460e 82ba 9d3f 663d 055a 4884 3a3f
000003c0: 9347 35f2 c35c 80bf 185e 3a27 a8c6 923f
000003d0: 4b9b cbda 35f7 a13f d0a3 3658 3ca7 773f
000003e0: f407 1104 fff2 8d3f 808c dada 7712 923f
000003f0: 10c7 8eab 1cd6 a33f 13b4 686f cda6 4cbf

W2 f8 [128, 10]
-0.15481674045013757 0.196425593728958 0.1428787610995911 0.1613547939738454 -0.09563205461460524 -0.12881332793139721 -0.09326898038384653 0.07538137139453975
-0.055156315234330115 -0.048492861427590885 0.1401997796714185 -0.09802751065152158 -0.0424490369166989 -0.05102621872071315 -0.09308330383188604 0.16829688352164063
0.10219416605163091 -0.09766223897983929 0.09671491114421568 -0.06677543000034712 0.25059856708669886 -0.20668543488764762 0.021710776295724855 -0.00414532377484488
-0.1687407656801408 -0.0312177339401841 -0.08503326877560101 0.15930006135718272 0.01413410603124328 0.02337866750826667 -0.016570031210537527 0.0033287142831511843
0.004217459551229511 -0.009507667826970505 0.01892842817790256 -0.012770613635641718 -0.0025542269698279434 0.02532398121266884 -0.009395051482763558 -0.006602673411690485
0.07935128738008386 -0.16405693007470165 0.16971239142735942 -0.17193420721514283 0.1540939959261516 -0.07856975200240442 0.21080426644318195 -0.11896206186837144
-0.015721448776242042 -0.07267283730245062 -0.11621738488592319 0.12380514205692947 -0.006039547203123193 0.08462241007229694 0.02146491404980752 0.052801078831219435
-0.0426799361016477 -0.08801555859239256 0.04291199851768677 -0.09010895451129573 0.023539638647272078 0.028256576160660983 -0.07567419559108171 0.1776928980234046
-0.1894890370819712 0.08104942176087547 -0.15453301912685052 0.11469491774569288 0.06229993120154161 -0.0502346551238783 -0.0017222959717221574 -0.10756095388302528
0.10979706063982268 0.23160911015991803 0.005117227394031273 -0.028454614572052745 0.014851265239030414 -0.06192868713516529 -0.1275136778285284 -0.0682267840534651
0.0010475146888383469 0.0675015983918431 0.10443413943609972 -0.08333587223587509 -0.03706466364791546 -0.02994521393296842 -0.05317238887586215 -0.027657542338706924
0.05384906300190115 -0.06362649071986827 0.013260901048980284 0.0042087985963039694 0.022456552959934536 0.03466369796335333 -0.006835023243966057 -0.0203361944005516
-0.010690149540931115 0.0036608045144239346 -0.0032426528572816822 0.004009817848336177 0.017539088827889952 -0.0709516020376998 -0.017409513675494696 -0.01833955515940393
-0.01759792004741838 0.13894502880104945 -0.06879793963837309 -0.05022270142759217 0.0289991953673307 0.08183471913889732 -0.059991293754238534 0.03780064768405799
-0.06193264025481216 -0.03307676374240872 -0.21087798023847096 -0.10826256552853236 -0.1805747354228389 0.46502948477791745 -0.03378813078474015 0.18228063162301864
0.018858944544513888 -0.005543066843340254 -0.0020468738551065995 0.0009586527206097739 0.0056164248639681 0.011881676486279209 0.010047422974803445 0.006734637890400636
-0.0038348345337004676 0.0006296811204882521 -0.21048998861916934 0.16022422394053146 0.12697379775276255 0.01222474472246442 0.11040671891205332 -0.10119639233525517
-0.09305931539705257 0.009474063344330833 0.011408911177626426 -0.007757802220737816 0.06474706019969584 -0.1418320723832254 -0.12628776799046346 0.26440789876409687
-0.03673486960371742 0.21539993878337427 0.033966508687714315 -0.1499885874039868 -0.11324582602912744 -0.025872427234299486 0.048978920404504314 -0.11117184320838501
-0.019466292852632718 0.1307597193360421 -0.06326336461722028 -0.0006211827889383689 0.06588778495627162 0.11866434711603681 -0.11631753898548387 -0.010513823218580999
0.13686410333681126 0.08466967106597136 -0.07280853695364374 -0.13545037897454448 -0.11165209473490559 0.051105234590722 -0.05488932712468335 -0.014800589406094255
0.1321243320003355 -0.010119233558602354 0.05172823555884482 -0.020407164435024803 -0.06523615812001435 0.03114882606796781 0.04905848332881947 0.0039912204154017045
0.03032249410993166 0.0021476638861164933 -0.07254195797386785 -0.019571400787604547 -0.05976917996390963 0.04010168547683895 0.07048714080632465 0.011862889923080757
-0.08681185687157665 0.003464641275801817 0.0954733671444035 0.00931467374970081 -0.08751676356984109 -0.026527143351189983 0.18995032170163068 -0.09256815143109783
-0.03549720435778442 0.04520461770089774 -0.10301558577875909 0.06057579156659008 -0.07742861127519744 0.08588970125540266 -0.008946515003795041 -0.056420554707859456
0.05743943652689829 -0.22047908984103737 0.08431257557981464 -0.02381182182045412 0.13231662245480075 -0.04000915997516566 0.1733135062064017 -0.20314244356260716
0.049986553082632564 -0.009104940394483287 -0.08499885385497827 -0.06585433457638229 -0.12702157547919665 -0.0295890608635854 0.07260017634652559 -0.015591563924205675
-0.0613860002062633 -0.0354082267476516 0.14751679982399007 0.19629452476953227 -0.13637765345942574 0.22153011198811906 0.09656562058829003 -0.13806509396396124
-0.20613069833642983 0.008186241978991206 0.30981543842230325 -0.22883388681643257 0.17374510858001233 -0.15981139664341565 -0.0006052676917588423 0.004308278449688519
0.006246949422436907 0.010672182391708295 0.018088112986955045 0.0032980924646113003 -0.005227195668731598 0.001879885698555609 0.003097906619804891 0.002214916631305813
0.014862418136556197 0.04691857011165537 -0.07214518871701281 -0.03326785176599275 -0.022724753703193178 0.05968336883640886 0.09451222729369634 -0.009605172289096612
-0.059018954985467185 -0.0009833412408019168 -0.0914016968566916 0.09238485925802031 -0.05660861769718422 -0.04053686715353843 -0.007117384543115683 -0.02734978581645002
00000000: 13a7 8df2 08d1 c3bf 9de5 944e 7924 c93f
00000010: 659d 1beb d949 c23f 6ad2 951d 46a7 c43f
00000020: 31de 04a3 577b b8bf 108c 6083 f47c c0bf
00000030: d5d9 7ad4 79e0 b7bf 63ff dd8c 314c b33f
00000040: 57d9 32d4 723d acbf 6d88 d76b 0ed4 a8bf
00000050: d02d 4cfe 10f2 c13f 9f48 5bb8 5418 b9bf
00000060: 339b 9b52 e1bb a5bf 25bb 49c9 1b20 aabf
00000070: 0af7 c2b1 4ed4 b7bf e440 5f95 c08a c53f
00000080: b9a3 0899 6529 ba3f c9f8 787a 6400 b9bf
00000090: 4663 66f4 4ec2 b83f bf1f 07d0 3118 b1bf
000000a0: 15f5 8392 ce09 d03f 3674 b317 ab74 cabf
000000b0: aac5 a488 593b 963f 7669 b5e0 affa 70bf
000000c0: f291 0c23 4c99 c5bf 1a33 50a9 8af7 9fbf
000000d0: 3f93 7684 bdc4 b5bf 8ad3 e3c4 f163 c43f
000000e0: 2891 4c99 57f2 8c3f 20fe 7cd1 93f0 973f
000000f0: 9363 92f8 bbf7 90bf 0bcd 7bdf d144 6b3f
00000100: 5d07 84ad 5346 713f 6949 0693 c178 83bf
00000110: cb81 f44f f961 933f 4fc8 51bf 7a27 8abf
00000120: 98c1 a929 9aec 64bf 35a4 739c 87ee 993f
00000130: 4bd2 e676 b63d 83bf 5afa e8a5 670b 7bbf
00000140: ad65 31b0 5d50 b43f 2f2f ad46 d1ff c4bf
00000150: dd06 74b9 22b9 c53f b7bf 86aa f001 c6bf
00000160: b9a2 8120 5ab9 c33f cd1e 4eb3 251d b4bf
00000170: c888 1d5b a2fb ca3f 787b 3035 4c74 bebf
00000180: 00da 5b91 4819 90bf 9584 85e3 af9a b2bf
00000190: 93ca 4f2b 6cc0 bdbf ae0d 369c b1b1 bf3f
000001a0: 2260 859b ecbc 78bf 5deb c473 d0a9 b53f
000001b0: 38e7 6bff e5fa 953f 0116 8c35 be08 ab3f
000001c0: 25ff 8003 25da a5bf 1389 b109 3088 b6bf
000001d0: 2d9b 7abc 8ff8 a53f 87e8 b364 6111 b7bf
000001e0: aa48 9968 c61a 983f b623 07ba 4aef 9c3f
000001f0: 5afd 3653 625f b3bf 64f9 de10 a4be c63f
00000200: 3dda 9b40 2d41 c8bf 8f9a d2a7 a7bf b43f
00000210: cea6 a6eb bcc7 c3bf 8233 bc68 a55c bd3f
00000220: cb7a 1bce c6e5 af3f f60a c451 5bb8 a9bf
00000230: 7556 d837 d537 5cbf 7c10 415b 1d89 bbbf
00000240: 931c a500 a91b bc3f 58d7 cb08 5ea5 cd3f
00000250: 5661 db44 cdf5 743f f56c 07dc 3423 9dbf
00000260: e3fe 0b14 576a 8e3f 4e08 dceb 1db5 afbf
00000270: 9079 0842 5e52 c0bf 0c8c 387e 4f77 b1bf
00000280: 0036 2955 9829 513f 174c 85e5 c847 b13f
00000290: 92c5 761d 32bc ba3f 2533 d6ed 7f55 b5bf
000002a0: 9bfa 68bc 23fa a2bf 9727 0e4a f5a9 9ebf
000002b0: 7c46 8b4e 6939 abbf 0e76 543f 4252 9cbf
000002c0: 8cdd 06b9 1a92 ab3f b113 cd60 d349 b0bf
000002d0: 5020 9102 8828 8b3f 06a8 39c5 3e3d 713f
000002e0: bfdc 2cc2 d9fe 963f 2fd8 38b2 70bf a13f
000002f0: 37c2 cd94 0aff 7bbf 8a7a 80e7 02d3 94bf
00000300: 2058 5795 b7e4 85bf b9f7 5375 43fd 6d3f
00000310: 5183 2dff 5590 6abf 5f26 5848 996c 703f
00000320: ce71 ab53 c4f5 913f 49c9 595a e229 b2bf
00000330: de86 80af ccd3 91bf 0d04 88b6 9ac7 92bf
00000340: 4d3c 536c 3005 92bf 6936 5261 f3c8 c13f
00000350: 2f6c c7e4 bd9c b1bf 79eb 4b38 cab6 a9bf
00000360: b01c da0e f7b1 9d3f 3300 61c2 1ef3 b43f
00000370: d438 70c9 2db7 aebf df2b 2443 9b5a a33f
00000380: 6111 e690 a2b5 afbf bbf4 0f05 70ef a0bf
00000390: e50e 49b6 0cfe cabf 847b 5372 18b7 bbbf
000003a0: 39fe 8fab 121d c7bf 2b00 3307 0bc3 dd3f
000003b0: aa46 6d89 ad4c a1bf 6bee c1c3 f854 c73f
000003c0: 661a 3958 c24f 933f ebac fcac 53b4 76bf
000003d0: fcf8 8808 9bc4 60bf 1f9f a70a c369 4f3f
000003e0: 2069 c791 3f01 773f ea17 719f 6b55 883f
000003f0: 47d7 af48 be93 843f 87b3 d597 c795 7b3f
00000400: dfd1 0c1d 3b6a 6fbf 0749 e2e8 25a2 443f
00000410: 789b a000 56f1 cabf 0300 ed34 3a82 c43f
00000420: 3105 666a ad40 c03f 1a8b 4776 4909 893f
00000430: 2766 fc5e 9d43 bc3f 5b98 8dbb 01e8 b9bf
00000440: f7ee 373c bcd2 b7bf 6806 cb41 2367 833f
00000450: bb82 2023 8e5d 873f d600 3b2d a5c6 7fbf
00000460: d4e0 116a 4393 b03f 3976 34a8 8d27 c2bf
00000470: 37b2 b394 322a c0bf 6abc 7f1b 0fec d03f
00000480: b13e 24af e9ce a2bf 8047 51a6 3992 cb3f
00000490: 5d31 f2e7 0e64 a13f b030 d676 d332 c3bf
000004a0: a61f 34af adfd bcbf 5c9a 5b33 4d7e 9abf
000004b0: da55 a9da c313 a93f dfe8 d006 c275 bcbf
000004c0: 6aa6 b4cc f8ee 93bf 2f5a 1707 bcbc c03f
000004d0: d1dd 1022 0732 b0bf 6ebe b4e1 db5a 44bf
000004e0: 44d3 9799 05de b03f a987 1062 c960 be3f
000004f0: e5d3 e479 fcc6 bdbf 54b0 0977 4588 85bf
00000500: e2fa e94f c384 c13f 3101 315c e9ac b53f
00000510: cfe3 158d 94a3 b2bf b896 f621 7056 c1bf
00000520: 8293 6a4f 3b95 bcbf 2c70 711e 772a aa3f
00000530: a6c7 cc31 741a acbf e682 af7b c54f 8ebf
00000540: b540 793a 73e9 c03f 4aea 8e89 64b9 84bf
00000550: 5992 0290 1f7c aa3f 89fc 689f 9de5 94bf
00000560: b663 a41d 51b3 b0bf 0e36 1555 7ae5 9f3f
00000570: 222f fa8a 311e a93f a204 7c12 1959 703f
00000580: 1228 2422 dc0c 9f3f 9fde ea44 fa97 613f
00000590: d7e7 1519 1c92 b2bf 9e57 4779 860a 94bf
000005a0: f1e8 81e2 109a aebf 9766 4647 3588 a43f
000005b0: f63c 8dfc 710b b23f dba1 0b22 924b 883f
000005c0: d71f 2b46 4d39 b6bf 0123 1a1f e161 6c3f
000005d0: e332 864d f170 b83f 28e3 0559 9213 833f
000005e0: 025d 62a5 7f67 b6bf bc41 9974 ee29 9bbf
000005f0: 0e5e c9c9 4a50 c83f bd38 0cdf 8bb2 b7bf
00000600: 88d9 a187 b02c a2bf 999c 4e45 0f25 a73f
00000610: cde6 e5bb 3a5f babf fd66 6a47 ca03 af3f
00000620: a3a0 3389 5cd2 b3bf aa85 f411 defc b53f
00000630: f3f5 d5ea 8c52 82bf 11ba 95aa 27e3 acbf
00000640: cd73 c4aa b368 ad3f 50d8 28a8 a838 ccbf
00000650: c0bf c14a 8295 b53f 757a e84f 2062 98bf
00000660: da8c 1447 c0ef c03f 547d 44a3 147c a4bf
00000670: 8748 8e10 232f c63f 4df5 c353 9200 cabf
00000680: f197 7565 d697 a93f c188 cf69 9ca5 82bf
00000690: 762e 8121 7cc2 b5bf f42e 4e65 d4db b0bf
000006a0: dbe6 4834 3e42 c0bf 89ef e942 984c 9ebf
000006b0: cf97 17d7 ec95 b23f f903 2f49 78ee 8fbf
000006c0: 93e4 a25e fc6d afbf b9f1 c7ef 0621 a2bf
000006d0: 0e64 6d9b d4e1 c23f b16e 22d2 2d20 c93f
000006e0: e3b8 c1ac d274 c1bf 6aba 0845 195b cc3f
000006f0: fb3a 5846 86b8 b83f 43ae a5f3 1dac c1bf
00000700: ec3e 07a0 7d62 cabf c182 9dcc f2c3 803f
00000710: df75 f421 04d4 d33f 20ec 0bc6 6d4a cdbf
00000720: af76 989b 473d c63f 6a47 0e29 b374 c4bf
00000730: 2ec4 8078 5ad5 43bf 8d11 b2b0 8ea5 713f
00000740: 3191 81b7 6696 793f b96f cb12 4cdb 853f
00000750: 8bbb e6b6 b085 923f c941 cae8 9904 6b3f
00000760: 4ce4 26a7 1c69 75bf a9e8 1ce6 cfcc 5e3f
00000770: cdab c7f3 c760 693f 269b d54f 0425 623f
00000780: 7f19 b0fe 2f70 8e3f f4c6 68f8 b505 a83f
00000790: 1073 1a6a 1b78 b2bf bbac afde 7b08 a1bf
000007a0: c606 dc67 2845 97bf 5af3 888a d18e ae3f
000007b0: 676d 4c0d f431 b83f 753a d566 e0ab 83bf
000007c0: 436b 0383 bb37 aebf 3756 159e 6e1c 50bf
000007d0: b563 cc02 1a66 b7bf 80a4 28bd 88a6 b73f
000007e0: b7c2 5c03 cefb acbf 5fda 698d 3fc1 a4bf
000007f0: 5124 885d 1e27 7dbf cc7a 890e 9501 9cbf

b2 f8 [1, 10]
-0.19186803147581394 0.21720364928742442 -0.03007335771838062 -0.0529158365974819 0.10230554585367976 0.11293442786254189 -0.02378940700596695 0.058321622519427574
-0.17991281866005318 -0.012205794065377307
00000000: 1213 2bb4 218f c8bf a473 2145 54cd cb3f
00000010: a681 86df 8ccb 9ebf 31da 40d7 c817 abbf
00000020: 7617 a43d b230 ba3f 3d18 434a 45e9 bc3f
00000030: 75d3 5314 405c 98bf 18bf bdea 54dc ad3f
00000040: 7957 231c 6207 c7bf 20f9 a8f2 59ff 88bf
